{
  "reg_term": 1.0,
  "n_clusters": 3,
  "n_ds": 50,
  "n_features": 10,
  "m_shared": 100,
  "repeat_times": 10,
  "n_iters": 2000,
  "noise_val": 1.0,
  "p_in": 0.8,
  "p_out": 0.2,
  "lrate": 0.01,
  "adj_matrix": false,
  "parametric": true,
  "exp_dir": "/scratch/work/abduras1/het-FL/out/Linreg_Torch_672336/reg_term_1.0",
  "models_pooled": "[Linreg_Torch(\n  (model): Linear(in_features=10, out_features=1, bias=False)\n  (criterion): MSELoss()\n), Linreg_Torch(\n  (model): Linear(in_features=10, out_features=1, bias=False)\n  (criterion): MSELoss()\n), Linreg_Torch(\n  (model): Linear(in_features=10, out_features=1, bias=False)\n  (criterion): MSELoss()\n)]",
  "models": "[Linreg_Torch(\n  (model): Linear(in_features=10, out_features=1, bias=False)\n  (criterion): MSELoss()\n), Linreg_Torch(\n  (model): Linear(in_features=10, out_features=1, bias=False)\n  (criterion): MSELoss()\n), Linreg_Torch(\n  (model): Linear(in_features=10, out_features=1, bias=False)\n  (criterion): MSELoss()\n), Linreg_Torch(\n  (model): Linear(in_features=10, out_features=1, bias=False)\n  (criterion): MSELoss()\n), Linreg_Torch(\n  (model): Linear(in_features=10, out_features=1, bias=False)\n  (criterion): MSELoss()\n), Linreg_Torch(\n  (model): Linear(in_features=10, out_features=1, bias=False)\n  (criterion): MSELoss()\n), Linreg_Torch(\n  (model): Linear(in_features=10, out_features=1, bias=False)\n  (criterion): MSELoss()\n), Linreg_Torch(\n  (model): Linear(in_features=10, out_features=1, bias=False)\n  (criterion): MSELoss()\n), Linreg_Torch(\n  (model): Linear(in_features=10, out_features=1, bias=False)\n  (criterion): MSELoss()\n), Linreg_Torch(\n  (model): Linear(in_features=10, out_features=1, bias=False)\n  (criterion): MSELoss()\n), Linreg_Torch(\n  (model): Linear(in_features=10, out_features=1, bias=False)\n  (criterion): MSELoss()\n), Linreg_Torch(\n  (model): Linear(in_features=10, out_features=1, bias=False)\n  (criterion): MSELoss()\n), Linreg_Torch(\n  (model): Linear(in_features=10, out_features=1, bias=False)\n  (criterion): MSELoss()\n), Linreg_Torch(\n  (model): Linear(in_features=10, out_features=1, bias=False)\n  (criterion): MSELoss()\n), Linreg_Torch(\n  (model): Linear(in_features=10, out_features=1, bias=False)\n  (criterion): MSELoss()\n), Linreg_Torch(\n  (model): Linear(in_features=10, out_features=1, bias=False)\n  (criterion): MSELoss()\n), Linreg_Torch(\n  (model): Linear(in_features=10, out_features=1, bias=False)\n  (criterion): MSELoss()\n), Linreg_Torch(\n  (model): Linear(in_features=10, out_features=1, bias=False)\n  (criterion): MSELoss()\n), Linreg_Torch(\n  (model): Linear(in_features=10, out_features=1, bias=False)\n  (criterion): MSELoss()\n), Linreg_Torch(\n  (model): Linear(in_features=10, out_features=1, bias=False)\n  (criterion): MSELoss()\n), Linreg_Torch(\n  (model): Linear(in_features=10, out_features=1, bias=False)\n  (criterion): MSELoss()\n), Linreg_Torch(\n  (model): Linear(in_features=10, out_features=1, bias=False)\n  (criterion): MSELoss()\n), Linreg_Torch(\n  (model): Linear(in_features=10, out_features=1, bias=False)\n  (criterion): MSELoss()\n), Linreg_Torch(\n  (model): Linear(in_features=10, out_features=1, bias=False)\n  (criterion): MSELoss()\n), Linreg_Torch(\n  (model): Linear(in_features=10, out_features=1, bias=False)\n  (criterion): MSELoss()\n), Linreg_Torch(\n  (model): Linear(in_features=10, out_features=1, bias=False)\n  (criterion): MSELoss()\n), Linreg_Torch(\n  (model): Linear(in_features=10, out_features=1, bias=False)\n  (criterion): MSELoss()\n), Linreg_Torch(\n  (model): Linear(in_features=10, out_features=1, bias=False)\n  (criterion): MSELoss()\n), Linreg_Torch(\n  (model): Linear(in_features=10, out_features=1, bias=False)\n  (criterion): MSELoss()\n), Linreg_Torch(\n  (model): Linear(in_features=10, out_features=1, bias=False)\n  (criterion): MSELoss()\n), Linreg_Torch(\n  (model): Linear(in_features=10, out_features=1, bias=False)\n  (criterion): MSELoss()\n), Linreg_Torch(\n  (model): Linear(in_features=10, out_features=1, bias=False)\n  (criterion): MSELoss()\n), Linreg_Torch(\n  (model): Linear(in_features=10, out_features=1, bias=False)\n  (criterion): MSELoss()\n), Linreg_Torch(\n  (model): Linear(in_features=10, out_features=1, bias=False)\n  (criterion): MSELoss()\n), Linreg_Torch(\n  (model): Linear(in_features=10, out_features=1, bias=False)\n  (criterion): MSELoss()\n), Linreg_Torch(\n  (model): Linear(in_features=10, out_features=1, bias=False)\n  (criterion): MSELoss()\n), Linreg_Torch(\n  (model): Linear(in_features=10, out_features=1, bias=False)\n  (criterion): MSELoss()\n), Linreg_Torch(\n  (model): Linear(in_features=10, out_features=1, bias=False)\n  (criterion): MSELoss()\n), Linreg_Torch(\n  (model): Linear(in_features=10, out_features=1, bias=False)\n  (criterion): MSELoss()\n), Linreg_Torch(\n  (model): Linear(in_features=10, out_features=1, bias=False)\n  (criterion): MSELoss()\n), Linreg_Torch(\n  (model): Linear(in_features=10, out_features=1, bias=False)\n  (criterion): MSELoss()\n), Linreg_Torch(\n  (model): Linear(in_features=10, out_features=1, bias=False)\n  (criterion): MSELoss()\n), Linreg_Torch(\n  (model): Linear(in_features=10, out_features=1, bias=False)\n  (criterion): MSELoss()\n), Linreg_Torch(\n  (model): Linear(in_features=10, out_features=1, bias=False)\n  (criterion): MSELoss()\n), Linreg_Torch(\n  (model): Linear(in_features=10, out_features=1, bias=False)\n  (criterion): MSELoss()\n), Linreg_Torch(\n  (model): Linear(in_features=10, out_features=1, bias=False)\n  (criterion): MSELoss()\n), Linreg_Torch(\n  (model): Linear(in_features=10, out_features=1, bias=False)\n  (criterion): MSELoss()\n), Linreg_Torch(\n  (model): Linear(in_features=10, out_features=1, bias=False)\n  (criterion): MSELoss()\n), Linreg_Torch(\n  (model): Linear(in_features=10, out_features=1, bias=False)\n  (criterion): MSELoss()\n), Linreg_Torch(\n  (model): Linear(in_features=10, out_features=1, bias=False)\n  (criterion): MSELoss()\n), Linreg_Torch(\n  (model): Linear(in_features=10, out_features=1, bias=False)\n  (criterion): MSELoss()\n), Linreg_Torch(\n  (model): Linear(in_features=10, out_features=1, bias=False)\n  (criterion): MSELoss()\n), Linreg_Torch(\n  (model): Linear(in_features=10, out_features=1, bias=False)\n  (criterion): MSELoss()\n), Linreg_Torch(\n  (model): Linear(in_features=10, out_features=1, bias=False)\n  (criterion): MSELoss()\n), Linreg_Torch(\n  (model): Linear(in_features=10, out_features=1, bias=False)\n  (criterion): MSELoss()\n), Linreg_Torch(\n  (model): Linear(in_features=10, out_features=1, bias=False)\n  (criterion): MSELoss()\n), Linreg_Torch(\n  (model): Linear(in_features=10, out_features=1, bias=False)\n  (criterion): MSELoss()\n), Linreg_Torch(\n  (model): Linear(in_features=10, out_features=1, bias=False)\n  (criterion): MSELoss()\n), Linreg_Torch(\n  (model): Linear(in_features=10, out_features=1, bias=False)\n  (criterion): MSELoss()\n), Linreg_Torch(\n  (model): Linear(in_features=10, out_features=1, bias=False)\n  (criterion): MSELoss()\n), Linreg_Torch(\n  (model): Linear(in_features=10, out_features=1, bias=False)\n  (criterion): MSELoss()\n), Linreg_Torch(\n  (model): Linear(in_features=10, out_features=1, bias=False)\n  (criterion): MSELoss()\n), Linreg_Torch(\n  (model): Linear(in_features=10, out_features=1, bias=False)\n  (criterion): MSELoss()\n), Linreg_Torch(\n  (model): Linear(in_features=10, out_features=1, bias=False)\n  (criterion): MSELoss()\n), Linreg_Torch(\n  (model): Linear(in_features=10, out_features=1, bias=False)\n  (criterion): MSELoss()\n), Linreg_Torch(\n  (model): Linear(in_features=10, out_features=1, bias=False)\n  (criterion): MSELoss()\n), Linreg_Torch(\n  (model): Linear(in_features=10, out_features=1, bias=False)\n  (criterion): MSELoss()\n), Linreg_Torch(\n  (model): Linear(in_features=10, out_features=1, bias=False)\n  (criterion): MSELoss()\n), Linreg_Torch(\n  (model): Linear(in_features=10, out_features=1, bias=False)\n  (criterion): MSELoss()\n), Linreg_Torch(\n  (model): Linear(in_features=10, out_features=1, bias=False)\n  (criterion): MSELoss()\n), Linreg_Torch(\n  (model): Linear(in_features=10, out_features=1, bias=False)\n  (criterion): MSELoss()\n), Linreg_Torch(\n  (model): Linear(in_features=10, out_features=1, bias=False)\n  (criterion): MSELoss()\n), Linreg_Torch(\n  (model): Linear(in_features=10, out_features=1, bias=False)\n  (criterion): MSELoss()\n), Linreg_Torch(\n  (model): Linear(in_features=10, out_features=1, bias=False)\n  (criterion): MSELoss()\n), Linreg_Torch(\n  (model): Linear(in_features=10, out_features=1, bias=False)\n  (criterion): MSELoss()\n), Linreg_Torch(\n  (model): Linear(in_features=10, out_features=1, bias=False)\n  (criterion): MSELoss()\n), Linreg_Torch(\n  (model): Linear(in_features=10, out_features=1, bias=False)\n  (criterion): MSELoss()\n), Linreg_Torch(\n  (model): Linear(in_features=10, out_features=1, bias=False)\n  (criterion): MSELoss()\n), Linreg_Torch(\n  (model): Linear(in_features=10, out_features=1, bias=False)\n  (criterion): MSELoss()\n), Linreg_Torch(\n  (model): Linear(in_features=10, out_features=1, bias=False)\n  (criterion): MSELoss()\n), Linreg_Torch(\n  (model): Linear(in_features=10, out_features=1, bias=False)\n  (criterion): MSELoss()\n), Linreg_Torch(\n  (model): Linear(in_features=10, out_features=1, bias=False)\n  (criterion): MSELoss()\n), Linreg_Torch(\n  (model): Linear(in_features=10, out_features=1, bias=False)\n  (criterion): MSELoss()\n), Linreg_Torch(\n  (model): Linear(in_features=10, out_features=1, bias=False)\n  (criterion): MSELoss()\n), Linreg_Torch(\n  (model): Linear(in_features=10, out_features=1, bias=False)\n  (criterion): MSELoss()\n), Linreg_Torch(\n  (model): Linear(in_features=10, out_features=1, bias=False)\n  (criterion): MSELoss()\n), Linreg_Torch(\n  (model): Linear(in_features=10, out_features=1, bias=False)\n  (criterion): MSELoss()\n), Linreg_Torch(\n  (model): Linear(in_features=10, out_features=1, bias=False)\n  (criterion): MSELoss()\n), Linreg_Torch(\n  (model): Linear(in_features=10, out_features=1, bias=False)\n  (criterion): MSELoss()\n), Linreg_Torch(\n  (model): Linear(in_features=10, out_features=1, bias=False)\n  (criterion): MSELoss()\n), Linreg_Torch(\n  (model): Linear(in_features=10, out_features=1, bias=False)\n  (criterion): MSELoss()\n), Linreg_Torch(\n  (model): Linear(in_features=10, out_features=1, bias=False)\n  (criterion): MSELoss()\n), Linreg_Torch(\n  (model): Linear(in_features=10, out_features=1, bias=False)\n  (criterion): MSELoss()\n), Linreg_Torch(\n  (model): Linear(in_features=10, out_features=1, bias=False)\n  (criterion): MSELoss()\n), Linreg_Torch(\n  (model): Linear(in_features=10, out_features=1, bias=False)\n  (criterion): MSELoss()\n), Linreg_Torch(\n  (model): Linear(in_features=10, out_features=1, bias=False)\n  (criterion): MSELoss()\n), Linreg_Torch(\n  (model): Linear(in_features=10, out_features=1, bias=False)\n  (criterion): MSELoss()\n), Linreg_Torch(\n  (model): Linear(in_features=10, out_features=1, bias=False)\n  (criterion): MSELoss()\n), Linreg_Torch(\n  (model): Linear(in_features=10, out_features=1, bias=False)\n  (criterion): MSELoss()\n), Linreg_Torch(\n  (model): Linear(in_features=10, out_features=1, bias=False)\n  (criterion): MSELoss()\n), Linreg_Torch(\n  (model): Linear(in_features=10, out_features=1, bias=False)\n  (criterion): MSELoss()\n), Linreg_Torch(\n  (model): Linear(in_features=10, out_features=1, bias=False)\n  (criterion): MSELoss()\n), Linreg_Torch(\n  (model): Linear(in_features=10, out_features=1, bias=False)\n  (criterion): MSELoss()\n), Linreg_Torch(\n  (model): Linear(in_features=10, out_features=1, bias=False)\n  (criterion): MSELoss()\n), Linreg_Torch(\n  (model): Linear(in_features=10, out_features=1, bias=False)\n  (criterion): MSELoss()\n), Linreg_Torch(\n  (model): Linear(in_features=10, out_features=1, bias=False)\n  (criterion): MSELoss()\n), Linreg_Torch(\n  (model): Linear(in_features=10, out_features=1, bias=False)\n  (criterion): MSELoss()\n), Linreg_Torch(\n  (model): Linear(in_features=10, out_features=1, bias=False)\n  (criterion): MSELoss()\n), Linreg_Torch(\n  (model): Linear(in_features=10, out_features=1, bias=False)\n  (criterion): MSELoss()\n), Linreg_Torch(\n  (model): Linear(in_features=10, out_features=1, bias=False)\n  (criterion): MSELoss()\n), Linreg_Torch(\n  (model): Linear(in_features=10, out_features=1, bias=False)\n  (criterion): MSELoss()\n), Linreg_Torch(\n  (model): Linear(in_features=10, out_features=1, bias=False)\n  (criterion): MSELoss()\n), Linreg_Torch(\n  (model): Linear(in_features=10, out_features=1, bias=False)\n  (criterion): MSELoss()\n), Linreg_Torch(\n  (model): Linear(in_features=10, out_features=1, bias=False)\n  (criterion): MSELoss()\n), Linreg_Torch(\n  (model): Linear(in_features=10, out_features=1, bias=False)\n  (criterion): MSELoss()\n), Linreg_Torch(\n  (model): Linear(in_features=10, out_features=1, bias=False)\n  (criterion): MSELoss()\n), Linreg_Torch(\n  (model): Linear(in_features=10, out_features=1, bias=False)\n  (criterion): MSELoss()\n), Linreg_Torch(\n  (model): Linear(in_features=10, out_features=1, bias=False)\n  (criterion): MSELoss()\n), Linreg_Torch(\n  (model): Linear(in_features=10, out_features=1, bias=False)\n  (criterion): MSELoss()\n), Linreg_Torch(\n  (model): Linear(in_features=10, out_features=1, bias=False)\n  (criterion): MSELoss()\n), Linreg_Torch(\n  (model): Linear(in_features=10, out_features=1, bias=False)\n  (criterion): MSELoss()\n), Linreg_Torch(\n  (model): Linear(in_features=10, out_features=1, bias=False)\n  (criterion): MSELoss()\n), Linreg_Torch(\n  (model): Linear(in_features=10, out_features=1, bias=False)\n  (criterion): MSELoss()\n), Linreg_Torch(\n  (model): Linear(in_features=10, out_features=1, bias=False)\n  (criterion): MSELoss()\n), Linreg_Torch(\n  (model): Linear(in_features=10, out_features=1, bias=False)\n  (criterion): MSELoss()\n), Linreg_Torch(\n  (model): Linear(in_features=10, out_features=1, bias=False)\n  (criterion): MSELoss()\n), Linreg_Torch(\n  (model): Linear(in_features=10, out_features=1, bias=False)\n  (criterion): MSELoss()\n), Linreg_Torch(\n  (model): Linear(in_features=10, out_features=1, bias=False)\n  (criterion): MSELoss()\n), Linreg_Torch(\n  (model): Linear(in_features=10, out_features=1, bias=False)\n  (criterion): MSELoss()\n), Linreg_Torch(\n  (model): Linear(in_features=10, out_features=1, bias=False)\n  (criterion): MSELoss()\n), Linreg_Torch(\n  (model): Linear(in_features=10, out_features=1, bias=False)\n  (criterion): MSELoss()\n), Linreg_Torch(\n  (model): Linear(in_features=10, out_features=1, bias=False)\n  (criterion): MSELoss()\n), Linreg_Torch(\n  (model): Linear(in_features=10, out_features=1, bias=False)\n  (criterion): MSELoss()\n), Linreg_Torch(\n  (model): Linear(in_features=10, out_features=1, bias=False)\n  (criterion): MSELoss()\n), Linreg_Torch(\n  (model): Linear(in_features=10, out_features=1, bias=False)\n  (criterion): MSELoss()\n), Linreg_Torch(\n  (model): Linear(in_features=10, out_features=1, bias=False)\n  (criterion): MSELoss()\n), Linreg_Torch(\n  (model): Linear(in_features=10, out_features=1, bias=False)\n  (criterion): MSELoss()\n), Linreg_Torch(\n  (model): Linear(in_features=10, out_features=1, bias=False)\n  (criterion): MSELoss()\n), Linreg_Torch(\n  (model): Linear(in_features=10, out_features=1, bias=False)\n  (criterion): MSELoss()\n), Linreg_Torch(\n  (model): Linear(in_features=10, out_features=1, bias=False)\n  (criterion): MSELoss()\n), Linreg_Torch(\n  (model): Linear(in_features=10, out_features=1, bias=False)\n  (criterion): MSELoss()\n), Linreg_Torch(\n  (model): Linear(in_features=10, out_features=1, bias=False)\n  (criterion): MSELoss()\n), Linreg_Torch(\n  (model): Linear(in_features=10, out_features=1, bias=False)\n  (criterion): MSELoss()\n), Linreg_Torch(\n  (model): Linear(in_features=10, out_features=1, bias=False)\n  (criterion): MSELoss()\n), Linreg_Torch(\n  (model): Linear(in_features=10, out_features=1, bias=False)\n  (criterion): MSELoss()\n), Linreg_Torch(\n  (model): Linear(in_features=10, out_features=1, bias=False)\n  (criterion): MSELoss()\n), Linreg_Torch(\n  (model): Linear(in_features=10, out_features=1, bias=False)\n  (criterion): MSELoss()\n), Linreg_Torch(\n  (model): Linear(in_features=10, out_features=1, bias=False)\n  (criterion): MSELoss()\n), Linreg_Torch(\n  (model): Linear(in_features=10, out_features=1, bias=False)\n  (criterion): MSELoss()\n), Linreg_Torch(\n  (model): Linear(in_features=10, out_features=1, bias=False)\n  (criterion): MSELoss()\n)]",
  "n_neighbours": 50,
  "n_neighbours_fixed": false,
  "n_samples": 5
}